models/model_2.pth (torch, 34808 bytes, 10 tensors)

block_1.0.weight f4 [10, 1, 3, 3]
000000 ac d9 9c 3e 35 aa 0a bd 40 bc 79 be 03 3b cf 3e
       0.3063482 -0.03385373 -0.24388218 0.4047471
000010 0f 66 7c 3e f6 91 a8 bd 3c 57 89 be 4f a1 58 be
       0.24648307 -0.08230965 -0.26824367 -0.21155284
000020 58 66 d6 bd 79 0e ee 3e 82 54 d7 bd ea e0 02 bf
       -0.10468739 0.46495417 -0.105141655 -0.5112444
000030 69 84 28 3f 1c 02 fa 3d f2 87 f0 3c f6 bc a6 3e
       0.6582704 0.122074336 0.029361699 0.3256604
000040 dc 07 00 bf 2b 1d 1b bf 44 f6 05 bf 59 cf 99 3e
       -0.5001199 -0.6059138 -0.52328897 0.30041006
000050 71 ca 2a 3e 25 13 fa bd 11 4e 67 3e d9 e2 c7 3e
       0.16678788 -0.12210683 0.22588374 0.3904026
000060 f3 b5 d6 be 99 70 16 be 41 94 88 3e d1 f9 54 be
       -0.4193569 -0.1469139 0.2667561 -0.20798422
000070 c0 d9 0e bf 48 f8 2e 3e fe 9f 83 3e 6d 5e 15 3e
       -0.5580101 0.170869 0.25708002 0.14586802
000080 30 94 e1 3d d6 8f 33 3e 5b 09 12 3e 4e 74 a0 3d
       0.11014593 0.17535338 0.14261381 0.07834683
000090 0a 62 99 bf bf c3 e0 be be 56 ed 3b 4b 87 9f bf
       -1.1983044 -0.43899342 0.0072430065 -1.2463163
0000a0 39 e6 36 be fa db 87 bd 04 02 bf 3e 9f 30 b2 3e
       -0.1786126 -0.06633754 0.37306225 0.3480272
0000b0 1d ac 39 3e a2 f7 61 3e 9f 64 6e 3d 8f a9 8a be
       0.18132062 0.2206712 0.05820143 -0.27082488
0000c0 e3 f0 c8 3e 7c 10 a2 3e 49 77 2f 3d 77 a5 af be
       0.39246282 0.31653202 0.04283837 -0.34305927
0000d0 e3 69 77 3e 0c 5a 9a be 95 ef c1 bc 36 ae 1e be
       0.24161486 -0.30146825 -0.023673812 -0.15496144
0000e0 eb 3c f9 3d b0 a0 93 3e 9a cf 0c 3e 37 f5 aa 3e
       0.12169822 0.28833532 0.13751069 0.3339021
0000f0 dd 66 97 3d 51 1e 0d 3d af fe 90 3c 6a b2 31 bc
       0.073926665 0.03445274 0.017699568 -0.01084576
000100 d6 be 9e bd a0 0d eb 3c 1e 9d 8c bf 4d 83 5e bf
       -0.07751243 0.02869302 -1.0985448 -0.869191
000110 ea 35 70 3d b9 f1 0c bf 41 1e 08 bf 4b 4c 25 be
       0.058645166 -0.5505634 -0.53171164 -0.16142385
000120 c3 31 12 3f d8 80 11 3e 25 c9 f5 3e ce 73 10 be
       0.5710718 0.14209306 0.48005024 -0.14106676
000130 88 e8 18 bf e5 2c 3c be 90 1b c9 3e f7 42 14 bf
       -0.59729815 -0.18376501 0.3927884 -0.5791468
000140 c3 dc 25 be 1d 0c ee 3d 4c 38 b7 3d 5b ed 72 3d
       -0.16197495 0.11623404 0.08946285 0.05930839
000150 8b f8 b7 3e 61 42 83 3e f7 4b d8 be da b5 3e be
       0.3593181 0.2563658 -0.42245457 -0.18624058
000160 97 e0 d1 3e 94 cf 10 bd
       0.4099166 -0.035354212

block_1.0.bias f4 [10]
000000 15 46 52 be 60 a7 99 3e 87 a3 c3 3d 89 6f af be
       -0.20534547 0.3001051 0.09552675 -0.34264782
000010 09 31 25 3e a4 21 af 3d 85 66 90 bd ff 28 9a 3e
       0.16131987 0.08551338 -0.07050804 0.30109403
000020 b0 35 ba 3c 58 ad ab 3c
       0.022730678 0.02095668

block_1.2.weight f4 [10, 10, 3, 3]
000000 f9 21 d3 3d 89 5c 93 bd 85 a0 b8 bd 69 89 4f 3c
       0.10309214 -0.07195384 -0.09014992 0.0126670385
000010 b7 e1 b7 bd 8c 52 17 3c 15 cc f1 3c e3 ad 33 bd
       -0.089785986 0.009235989 0.02951626 -0.043867003
000020 33 04 fd bb 3f a4 34 bc 5e 1e 0d bb 8f 15 c9 bd
       -0.007721448 -0.011025487 -0.0021532993 -0.09818565
000030 d0 fb d6 bd b9 9a 77 3d ae f5 d6 3d 36 5d 12 3d
       -0.10497248 0.06045029 0.104960784 0.035733424
000040 89 9c e7 bc 77 9e c9 3c 1d 29 2d bd 18 50 af bd
       -0.028272884 0.024611695 -0.042275537 -0.085601985
000050 d3 2d 19 bd a6 fa 69 bc fc 61 8f 3b 4b 01 d6 3d
       -0.037397217 -0.014280951 0.0043756943 0.10449465
000060 e9 c1 82 bd 94 8c 1e bc e9 24 ba 3b 2d bb 88 bd
       -0.06384642 -0.009677071 0.0056806696 -0.06676326
000070 ba fb 32 3d 56 46 74 bd 10 13 d2 3d 79 64 ef 3c
       0.043697096 -0.05963739 0.10257542 0.029222714
000080 4c 6a 72 bd d5 ff bf 3c 29 b9 5b bc 69 76 e8 bd
       -0.059183404 0.02343742 -0.013410845 -0.1135071
000090 e8 03 d0 3c f0 c9 8c 3c 4c 42 b2 bd a7 f2 87 3d
       0.025392488 0.017186135 -0.087040514 0.06638079
0000a0 f6 89 cd 3c 33 c8 71 3d b1 c9 ec bc 31 a0 db bd
       0.025090199 0.059028815 -0.028904768 -0.107239135
0000b0 21 fc 27 3d db 57 9d bd 82 f7 37 3d 31 78 80 3d
       0.041011933 -0.07682773 0.044913776 0.06272925
0000c0 2d fc a8 bc ea 23 dc bd 0a 54 ca bb 0c ab de 3c
       -0.02062806 -0.107490376 -0.006174569 0.02718117
0000d0 0f fe 73 bd c1 0f b0 bd 50 25 b4 bd 87 20 ad bc
       -0.05956846 -0.08596755 -0.08796179 -0.021133674
0000e0 f2 2b ca 3c 27 76 68 3d cd 33 4c bc 16 94 8c 3d
       0.024679158 0.056753304 -0.012463522 0.06864183
0000f0 cf 00 85 bc 29 96 aa 3c 7b 85 1c 3d 7e 50 41 bc
       -0.016235737 0.020823555 0.038213234 -0.011798976
000100 81 ef 9e bd 50 79 9a 3d 18 8b b9 bd 47 15 12 3c
       -0.077605255 0.0754267 -0.09059733 0.008916206
000110 e3 a1 08 bd 94 b4 b5 3d 7d 5f c0 3c 7d 72 51 bd
       -0.033357512 0.08872333 0.023483032 -0.051134575
000120 77 01 8d 3d 2d bd c0 bd ca 4c 54 bd ef 94 c7 bd
       0.06885045 -0.094110824 -0.051831044 -0.09745204
000130 e1 c9 8c 3d c6 fc 55 3d 8b a4 bc bd a3 02 1e 3d
       0.06874443 0.052243017 -0.092110716 0.038576733
000140 c0 0a 8a 3a 5b f3 99 bc 31 29 d6 bd cc 90 e1 3d
       0.0010531768 -0.018792799 -0.104570754 0.11013946
000150 ef 94 9c bd 1f bf dd 3c 67 f2 b0 3d 0d 17 c1 bd
       -0.07645594 0.027068673 0.086399846 -0.09428225
000160 2b e8 9d bd f6 25 a1 bd 6d 53 3e 3d b9 eb 84 bd
       -0.07710298 -0.078685686 0.04646628 -0.06490273
000170 9b 85 85 bd 75 f9 e4 bd bc 40 91 bd 0f f2 80 bd
       -0.06519624 -0.11180393 -0.07092425 -0.06296169
000180 37 a1 87 bd a2 c2 48 3d 56 96 33 3d 95 a9 d3 bb
       -0.06622546 0.04901374 0.043844543 -0.0064594247
000190 ab 1d b5 be 09 7c 0e bd e8 d4 1e 3e 99 60 91 be
       -0.35374197 -0.034786258 0.15510905 -0.2839401
0001a0 2f ef 83 bd b3 8c 8b 3e dc 15 b5 be b3 9c b8 bd
       -0.06442105 0.27255782 -0.3536824 -0.09014263
0001b0 3b 43 22 be c0 79 8b 3e c1 07 50 3e f0 2b ec bd
       -0.15845959 0.27241325 0.20315458 -0.11531818
0001c0 8b 92 0c 3e 20 a5 fd bb f3 5c db 3c 23 f7 83 3d
       0.13727777 -0.0077406317 0.02677772 0.06443622
0001d0 5e 5f e4 3d 96 22 32 3e 02 ec 00 be a8 a1 94 3d
       0.11151002 0.17396006 -0.1259003 0.07257396
0001e0 84 00 01 3e c0 be 4d bd ff da a8 bc 19 c5 db 3d
       0.12597853 -0.05023074 -0.020612238 0.10730953
0001f0 ab 54 ed bc 36 45 44 be f4 80 99 3e db 2e f8 3d
       -0.028971037 -0.19167027 0.29981196 0.12118312
000200 3a ee 8c bc c2 fe de 3e ac f4 97 3e 6c b0 3d 3d
       -0.017203439 0.4355374 0.29678857 0.046310827
000210 62 23 52 3e bd 56 cd bb b6 45 9c ba 8b 8f a6 be
       0.2052131 -0.0062664435 -0.0011922631 -0.3253139
000220 d4 4f c0 bd 56 73 c3 3e fb a8 ce bd 34 ce 6b be
       -0.09390226 0.38173932 -0.10090824 -0.23027879
000230 c7 7a d8 3d 9d 64 9e 3d 60 26 a2 3d 3f 69 71 3d
       0.10570293 0.07734034 0.07917476 0.05893826
000240 71 d7 58 bb 39 29 6d be 24 25 c0 3e 29 b7 24 be
       -0.0033087397 -0.23160256 0.37528336 -0.16085495
000250 53 9a 54 be 9c ac 95 3e b1 6a eb 3d fd af 7c 3d
       -0.20761995 0.29233253 0.11494959 0.061691273
000260 03 b7 20 3e 3c 80 cf 3e 92 d9 ab 3e 83 04 c0 3d
       0.15694813 0.40527523 0.3356443 0.093758605
000270 03 3e ed bc 35 50 ad bc ac b5 2d bd 54 ed 1b be
       -0.028960234 -0.02115641 -0.042409584 -0.15227252
000280 24 3f 53 be b5 12 26 be b5 6b 84 3d b2 3b c0 3d
       -0.20629555 -0.16218074 0.06465856 0.09386386
000290 84 6e b3 3d 9e 40 f5 3d 08 b1 04 bd 3e cf b9 3d
       0.087613136 0.119752154 -0.032395393 0.090727314
0002a0 0d 82 5b bd f6 d7 9e bd ba bc 48 be 73 4f 8b be
       -0.053590823 -0.07756035 -0.19603243 -0.27209052
0002b0 6d 30 c5 bd df c8 b0 3e ee 5a 32 be 54 af ea bd
       -0.09628377 0.34528252 -0.174175 -0.114592224
0002c0 fe 5b fa 3d 0a 48 2f bd 99 10 fb 3d c3 05 d2 3b
       0.12224577 -0.04279331 0.12259025 0.0064093783
0002d0 87 99 2a 3d 34 c8 29 bd 10 90 ac 3d cb bc 31 3d
       0.04165032 -0.041450694 0.08425915 0.043392938
0002e0 f8 8d a1 3d de 29 4e 3d ff f6 46 3d 47 63 27 3d
       0.078884065 0.050332896 0.048575398 0.040866163
0002f0 38 11 d2 3d bd 0d 6e 3d 22 67 f0 bd 8c c5 74 3d
       0.102571905 0.05811857 -0.11738421 0.059758708
000300 7e c5 e4 bc 00 6f 0b bc e9 c2 1f bc 84 d8 2b bc
       -0.027926203 -0.008510351 -0.00975106 -0.010488633
000310 40 63 9d bd 6c 14 0a bd cc 11 1c bd fe 32 b5 3c
       -0.07684946 -0.033710882 -0.03810291 0.022119042
000320 9f a0 2c bd c5 29 d0 bd 8b 2c d6 3d 55 5c 0f 3d
       -0.042145368 -0.10164217 0.10457715 0.035000164
000330 e8 e9 96 bc 64 e1 ae bc 4f c4 d6 3d 6a c2 d3 bc
       -0.018422082 -0.021347709 0.10486662 -0.02584954
000340 cd 3c 95 3b 26 0c 8d bd 0b cf b4 3d 98 8c 97 bd
       0.004554367 -0.06887083 0.08828553 -0.07399863
000350 62 ca 0a 3d f6 f6 c0 3d a3 87 27 3d 9f 9d fa 3d
       0.033884414 0.09422104 0.040900838 0.12237095
000360 7a df 0e bd 8a 70 8b 3d 68 7a 79 bd 51 0c 51 3d
       -0.034881093 0.068085745 -0.06090775 0.051037136
000370 59 69 49 bc ff fa 96 bc 2c 21 a9 bc 73 05 44 3c
       -0.012293183 -0.018430231 -0.0206457 0.01196419
000380 3e b7 cb 3b be e5 99 bd 12 a2 b4 3c fc aa fb 3b
       0.0062169125 -0.07514523 0.022049937 0.007680295
000390 e1 9d 9b bd 47 59 3f bd 53 24 f9 b9 f8 01 c3 3d
       -0.075984724 -0.046716 -0.00047520045 0.0952186
0003a0 89 ae cd 3d 0b f4 b9 bc 1a 4d 5f 3d 23 bb fd bd
       0.100430556 -0.022699377 0.05451689 -0.12389209
0003b0 a9 49 0c be 0f 32 ae bc 93 0a a7 bd bc 6e 13 bd
       -0.13699974 -0.021264104 -0.08156314 -0.035994276
0003c0 29 69 7d 3a d9 b5 04 3e 6e b8 08 3e 9c 28 91 bd
       0.0009666854 0.12959994 0.13351604 -0.07087824
0003d0 af 36 6a bc e2 b3 ff bc ff 6e fb bc 9c 95 17 bd
       -0.014295264 -0.031213704 -0.030692575 -0.037007913
0003e0 33 a8 72 bc 50 eb ea bb b6 a9 c1 bd ec 41 a7 bd
       -0.01481061 -0.0071691647 -0.09456198 -0.081668705
0003f0 74 06 fb 3d 07 8a c3 3c e3 b8 66 3d 94 a0 17 bd
       0.1225709 0.023869528 0.056328665 -0.037018374

block_1.2.bias f4 [10]
000000 f1 74 b9 bd 1c 60 89 3d 74 fb 96 3d cf fd 04 be
       -0.09055508 0.067077845 0.073721796 -0.12987445
000010 80 f9 f3 3e 32 76 08 3e 63 9c db bc 16 e3 93 3e
       0.4765129 0.13326338 -0.02680797 0.2888419
000020 44 7a 74 bc a3 94 0d 3f
       -0.0149217285 0.55304927

block_2.0.weight f4 [10, 10, 3, 3]
000000 6d f7 d5 3c 07 bc d0 3d 37 af d3 3c 00 24 b4 3d
       0.026118958 0.10192113 0.025840385 0.08795929
000010 bc a4 53 bd fd 3a 28 bd d5 ff 5c 3d 76 fb d9 3d
       -0.051670775 -0.04107188 0.053954918 0.106436655
000020 24 dd 08 bd 69 6a 3f be 06 0f 17 3b d1 88 ab be
       -0.03341402 -0.18692936 0.0023049726 -0.3350282
000030 df d2 b5 bc 75 61 00 3f b8 f4 aa bd 0d d2 7c 3c
       -0.022195278 0.5014871 -0.08347458 0.015430939
000040 c5 22 12 3e 27 14 a8 3e 3f 5b bf 3d 82 5f 51 3d
       0.14271076 0.32827875 0.09343576 0.051116474
000050 ed ec b4 3c 6a d7 93 3c ea a9 fb 3d aa de db 3d
       0.022085631 0.018047053 0.12288268 0.10735829
000060 93 03 ee 3b 3a 2b a0 3d 76 49 ff 3c f7 94 fa bc
       0.0072636097 0.07820745 0.031162959 -0.03058861
000070 ba 88 29 3e 67 cb ec bd 5f 31 84 bd 4d 04 74 3d
       0.16556063 -0.115622334 -0.06454729 0.059574414
000080 fd e4 3f bd 03 35 7d bd db c7 08 be a3 e2 06 be
       -0.04684924 -0.061818134 -0.13357489 -0.13172393
000090 ea 1e 1b bd b7 4f b7 bd b6 13 fe bc 66 16 09 3c
       -0.03787128 -0.08950751 -0.031015258 0.008367157
0000a0 70 b1 3b be 72 3d 28 3e 36 ac a6 bc fa cf 72 be
       -0.18329406 0.1642969 -0.020345788 -0.2371215
0000b0 90 17 33 3e 16 3e 64 be 51 72 01 3e a7 1b 83 be
       0.17489457 -0.22289309 0.12641264 -0.25607035
0000c0 4c 1c 11 bc d9 8b c1 3e 30 ce 09 3d 68 43 ee 3d
       -0.008856844 0.37802008 0.0336439 0.116339505
0000d0 a1 32 c2 3d a1 b7 cc 3d 7c c5 bb 3d e2 cd 22 3c
       0.09482313 0.09995962 0.091685265 0.009936782
0000e0 b3 d0 d3 bd fd e0 98 3b f5 37 19 3d 28 d5 b9 3d
       -0.103425406 0.0046654926 0.03740688 0.090738595
0000f0 78 63 c5 3c c8 f3 d7 3c e7 13 ad bc a3 8d 55 be
       0.024095282 0.026361361 -0.021127654 -0.20854811
000100 a0 58 bc 3d a3 62 af bd bf 16 6e bd 6f fa 17 3e
       0.091965914 -0.08563735 -0.05812716 0.14841627
000110 ee 69 0a 3e 56 ee f4 3c f0 56 49 bb 7a 47 c6 3d
       0.13516971 0.029898804 -0.0030721985 0.09681602
000120 48 86 24 bc 9c 0b e9 bc 7e d4 a2 3d ff 87 2a bb
       -0.010041781 -0.028447919 0.07950686 -0.0026021001
000130 3b 78 7a 3d 66 8c 8e 3d 9c 06 32 bc e4 66 9a bb
       0.061149817 0.069603726 -0.010865834 -0.0047119725
000140 77 e9 08 bd 1d a0 7c 3e bf c1 13 3d 3e 7c 23 3e
       -0.033425774 0.24670453 0.036073443 0.15965363
000150 67 fc 1d 3e 2e 83 cf bd 1c 59 80 3e f1 30 5b be
       0.15428315 -0.101324424 0.25067985 -0.21405388
000160 3c 03 33 be a8 1e ff bd 39 b8 49 bd b4 db d1 bd
       -0.17481703 -0.12457019 -0.049247954 -0.10246983
000170 a5 4d cc bd dd 9c c6 3d 57 f8 8c bc cf 56 4a 3d
       -0.09975747 0.09697888 -0.017208261 0.049399193
000180 0d bb b0 bd 33 b8 fe 3c cc 92 9c bd 76 31 4f 3b
       -0.08629427 0.031093692 -0.07645187 0.0031615174
000190 37 44 e5 3d d6 8f b1 3d 19 ca f3 bd 13 35 f7 3d
       0.111946516 0.08670013 -0.119037814 0.1207067
0001a0 05 8f 15 3e 23 59 43 3c da 28 35 bd 2a 43 ed bd
       0.14605339 0.011923107 -0.044228412 -0.11585076
0001b0 ce 44 a1 3d 2f 8a 07 3c 38 67 b2 bd ad b8 c1 3c
       0.078744516 0.008272692 -0.08711094 0.02364763
0001c0 fa c2 14 bd 6a be c9 3d 20 8c 85 3c dc 70 95 3c
       -0.036318757 0.09850772 0.016302168 0.018242292
0001d0 fa 3a d4 bd 0b 07 da 3c e3 be 80 bd a7 62 89 bd
       -0.103628114 0.026614686 -0.06286409 -0.067082696
0001e0 a9 f6 9b 3c 10 85 5d 3d 86 27 be bc ef e6 30 be
       0.019038515 0.054081976 -0.023212206 -0.17275594
0001f0 0d a7 d7 3c 1c 52 ca bc a6 4d 66 bd 1b 82 df 3d
       0.026324773 -0.024697356 -0.056226395 0.109134875
000200 09 f8 89 3d 05 eb 74 bd 1d 82 a4 3d f7 b1 04 3e
       0.06736762 -0.059794445 0.0803263 0.12958513
000210 15 98 92 bd ef 42 b6 bd 1a 5b 64 bc e3 39 60 bd
       -0.071579136 -0.08899485 -0.013937736 -0.054742705
000220 a6 d2 1e 3e b9 e0 8f bd c9 1e 4d be e2 83 88 3e
       0.15510044 -0.07025284 -0.20031275 0.2666312
000230 c2 cf 8b 3d 7e bf 9e bd d9 d0 25 3d a5 98 c7 3c
       0.06826736 -0.07751368 0.040482376 0.024364779
000240 3d 27 18 bc 07 41 33 3d c7 4c ae 3c ab 21 ca bc
       -0.009286699 0.043763187 0.021276845 -0.024674257
000250 74 76 16 3d 94 3e 14 bd bf 18 ab bd ad d1 ec 3c
       0.03673406 -0.03619249 -0.08354329 0.028908575
000260 59 c2 e4 bc 86 52 ca bd 32 c4 1b 3e df ed 24 3d
       -0.027924703 -0.09879021 0.15211561 0.040265914
000270 75 b1 03 be dd df 9a 3c b4 18 7f bb 2b b8 e5 bd
       -0.12860663 0.018905574 -0.0038924636 -0.11216768
000280 76 25 5b bd e2 61 34 bd dd 73 b3 bd 76 ce c1 bd
       -0.053502522 -0.04403866 -0.087623335 -0.094632074
000290 d9 6a a0 3b f1 bb 7e bd 03 b7 a7 bd 8d e6 ee 3c
       0.0048955497 -0.062190954 -0.081892036 0.02916267
0002a0 e9 4d 8d bc ed 24 ab 3d 0e 97 58 3d 25 dc 79 be
       -0.017249065 0.083566524 0.052878432 -0.24400385
0002b0 38 4d 8c bd 3a cd c2 3d d1 03 5f bd 84 93 88 bd
       -0.06850666 0.095118 -0.054447 -0.066687614
0002c0 80 93 23 3e 7d 01 3b be f2 f8 fd bc b5 d5 67 3e
       0.15974236 -0.18262286 -0.031002495 0.22640117
0002d0 9d 47 dc bc 3d 12 be 3c 46 3e 25 bd 41 73 fb 3c
       -0.026889617 0.023202056 -0.04034259 0.030694606
0002e0 2e 3d 3d 3d af 40 b0 bd 34 d7 53 bd a2 1c 2a bd
       0.046200924 -0.086060874 -0.051718906 -0.041531213
0002f0 16 ec a0 bc cb 87 43 3e c7 c9 c8 bd ff f2 70 bd
       -0.019643825 0.1909477 -0.09804111 -0.05882549
000300 38 23 20 3e 7e fb e1 be 10 06 af be 3e e6 d2 bd
       0.15638435 -0.44137186 -0.34184313 -0.102978215
000310 dc b6 ce bd fc 8d 24 be 4a 5a 9f bd f8 80 6a 3d
       -0.100934714 -0.16069788 -0.07780893 0.0572519
000320 fe 4b 8e 3d b8 d7 01 bd 52 7b db bd e5 c4 79 bd
       0.06948088 -0.031699866 -0.10716881 -0.06097879
000330 96 fd 10 be 0d 7a 12 bd e8 17 e0 bc 91 ce f7 bc
       -0.14159235 -0.035760928 -0.02735515 -0.030249866
000340 f2 c3 90 bd 34 32 ef bc 60 de 3f be ea ba 46 be
       -0.070686236 -0.029198743 -0.18737173 -0.1940724
000350 9b f3 39 3e 8e 66 5c be c0 df b1 bd c2 bf 5e 3d
       0.18159334 -0.21523497 -0.08685255 0.054382093
000360 b1 0c 95 bd ee e4 85 3e 0c c6 8a 3d 24 b6 9c 3e
       -0.07277811 0.26151222 0.06776056 0.30607712
000370 89 99 4c 3e b4 e4 5f be e9 63 f8 3d 87 c3 be be
       0.19980444 -0.21864587 0.12128431 -0.3725855
000380 2c a4 03 bf ff 8b 5b 3d 8c 40 2f be 2d a4 45 bd
       -0.5142238 0.053600308 -0.17114466 -0.048252273
000390 e3 03 79 be 7d 34 e7 be 3c f1 ac be f8 a2 9a be
       -0.24317889 -0.45157233 -0.33777797 -0.3020246
0003a0 c5 96 df bd 08 ea db 3d e7 5a f5 3c 9f 75 81 3d
       -0.10917429 0.10737997 0.029950572 0.063212626
0003b0 2f 15 54 3d cd dd 4f 3d c0 50 9c 3d e7 99 c7 bc
       0.051778015 0.050748635 0.07632589 -0.024365379
0003c0 e8 fe 25 3b 4c 04 3e 3d a8 4a e4 bb 91 d3 bf 3e
       0.0025328938 0.046390817 -0.0069669075 0.374661
0003d0 40 08 a4 3c 5f fb 87 bd fe 61 a5 3e d2 f0 0c be
       0.020023465 -0.06639742 0.32301325 -0.1376374
0003e0 1a ca 8c be fe 1a df bd a2 cc d8 bd de 90 35 be
       -0.2749794 -0.1089382 -0.105859056 -0.17731044
0003f0 55 41 c7 bd 05 37 39 3c ec dc 39 3d b2 95 84 bb
       -0.09729258 0.011304622 0.045376703 -0.0040461654

block_2.0.bias f4 [10]
000000 17 88 ea bc 66 cf 3a be 55 e8 87 3e db b1 0b 3f
       -0.028629346 -0.18243179 0.26544443 0.5456826
000010 d2 ec 83 3e e7 2d 0d 3e 50 f4 16 3e 48 b7 0d 3d
       0.25766617 0.13787042 0.14741635 0.03459862
000020 5f 16 92 bc ee 12 bb bc
       -0.017832933 -0.022836175

block_2.2.weight f4 [10, 10, 3, 3]
000000 62 f1 df 3d ea 19 f4 bd b9 ef 7a 3d dd 29 3c 3d
       0.10934712 -0.11919005 0.061263774 0.04593836
000010 d4 17 83 be 92 10 6e 3e 9e 4f e2 bc 4f 27 07 be
       -0.25604117 0.23248509 -0.027625855 -0.13198589
000020 c6 dd 1d 3e 3b 65 9d 3d 4b ce c1 3d 0f 74 35 be
       0.15416631 0.07685324 0.094631754 -0.17720054
000030 10 8b 12 3e 28 11 e5 3c 31 c3 2a 3d 4f 4d a0 3d
       0.1431086 0.027962282 0.041690055 0.078272454
000040 24 ab 02 3d 1b 1f dd 3d 8a 38 25 bd 35 72 2a be
       0.031901494 0.107969485 -0.040337123 -0.16645129
000050 02 34 a2 be b7 20 f9 bd 6c 1f 0a be d9 87 ba be
       -0.31680304 -0.12164443 -0.13488549 -0.3643177
000060 10 4b 1e be 21 95 51 3d 77 ae b5 bd 94 d3 7f bd
       -0.15458322 0.05116761 -0.08871167 -0.062457636
000070 6b f1 83 3e e9 13 c3 3d 13 cf 6e be d2 a9 33 3e
       0.25770125 0.09525282 -0.2332118 0.1754525
000080 02 4d a8 bd 55 1c 8c bd 58 ea 90 bc 39 5a 1c 3e
       -0.08217813 -0.068413414 -0.017689869 0.15268792
000090 aa 82 c2 3e 98 cd 85 be 88 2d 52 be 13 71 03 3e
       0.37990314 -0.26133418 -0.20525181 0.12836103
0000a0 42 78 9c be 60 81 8c bd 98 84 4b be a9 9a 0c bd
       -0.305605 -0.06860614 -0.19874799 -0.034327183
0000b0 b9 78 46 be 55 11 11 be ed 85 18 be e1 f4 7b bc
       -0.1938199 -0.14166768 -0.14894839 -0.015378208
0000c0 e6 d7 9c 3c 94 5e 29 3e 32 46 5b be c8 1a 04 be
       0.019145917 0.16539985 -0.21413496 -0.12900841
0000d0 8a 0d c2 3d 5c ef 2c be d9 15 87 3e c8 af 05 be
       0.094752386 -0.16888183 0.26383856 -0.13055336
0000e0 84 a9 08 be df a0 89 3e 54 e7 62 be b0 78 15 3e
       -0.13345915 0.26880547 -0.22158557 0.1459682
0000f0 77 65 5c be 0d c4 2c be 09 e4 08 3e f4 c1 4b 3e
       -0.21523081 -0.16871662 0.13368239 0.19898206
000100 5d aa 4c 3c 6a 61 f7 bb c3 dc b7 3c f8 96 0a be
       0.01249179 -0.0075494545 0.022444135 -0.13534153
000110 57 2c c5 bd 1b 85 86 3d d8 2d ed bd 2c 5a 91 bd
       -0.09627598 0.065683566 -0.115810096 -0.07097277
000120 d9 f5 c3 3c 31 42 0b 3c fa 55 b0 3c 1d 68 8e bd
       0.02392094 0.008499668 0.021525372 -0.06953452
000130 4d a2 9f bd 7e 06 b4 bc 81 b4 98 bd 38 e3 af 3c
       -0.07794628 -0.021975752 -0.074563034 0.021470651
000140 f2 6b da 3d aa c3 3c bd 73 3e cb bd 5a 4e 0c 3d
       0.1066512 -0.046085037 -0.099240206 0.03425441
000150 2d d7 cc 3d bc 94 ec 3c 56 82 3c 3d a8 8d 8f b8
       0.10001979 0.028879516 0.046022736 -6.845157e-05
000160 f3 e0 a3 3c 53 90 8c 3d 60 0d 75 be 36 a4 3d be
       0.020004725 0.06863465 -0.23930883 -0.18519673
000170 03 34 e3 3c 37 3e b4 bd c8 0f 36 be 23 75 24 3d
       0.027734762 -0.08800929 -0.17779458 0.040150773
000180 9d 34 0e 3d 83 2e da bd 65 c1 3f bd 77 c6 f8 3c
       0.034718145 -0.10653403 -0.046815295 0.030368073
000190 33 d6 79 bd aa b2 88 bd 48 b5 41 3c 1d f9 5d be
       -0.060995292 -0.066747025 0.011823006 -0.2167706
0001a0 53 8a 90 3d c2 a9 6d 3d 53 38 1e be fc 8c b4 3b
       0.07057633 0.05802322 -0.15451173 0.0055099707
0001b0 6c e6 83 be 0c 7f b6 be 12 3e e8 bc ec c0 ea bd
       -0.25761735 -0.35643804 -0.02834991 -0.11462578
0001c0 61 54 ab 3d 59 2f 8e 3e e1 fa b0 be 1b 9e a7 be
       0.083657034 0.27770498 -0.34566405 -0.32737812
0001d0 5a 75 b2 bc 47 d4 d8 3b 31 6b cd bd 9a 6e 26 be
       -0.021784473 0.0066171023 -0.10030211 -0.16253129
0001e0 68 af 11 bd 2a a0 80 3b 8d 81 35 be b1 b9 1e bb
       -0.03556767 0.003925343 -0.17725201 -0.0024219567
0001f0 39 ae cb bc 05 45 10 be a5 ec 2f bc 12 d6 f8 3e
       -0.02486335 -0.14088829 -0.010737573 0.48600823
000200 83 24 04 3e 16 39 a3 be 7f d8 ea bd 1e 24 13 be
       0.12904553 -0.3187949 -0.114670746 -0.14369246
000210 ca 29 8f 3e 2f aa 65 3d 78 6d 49 be e9 8e 64 3d
       0.2796157 0.056070503 -0.19670665 0.055800352
000220 de 3a 90 bd 23 2a d3 bc 32 37 a6 be 0f 8f 22 be
       -0.07042478 -0.025776928 -0.32463986 -0.15874885
000230 a8 8e e0 bc e0 32 da bc 63 a1 b1 bc 32 d9 e2 3d
       -0.027411774 -0.026635587 -0.0216834 0.11076583
000240 8d 07 e3 3e d0 33 79 3e bb 73 82 bc 94 42 1d bf
       0.44341698 0.24336171 -0.015924325 -0.61429715
000250 1a 5a 91 be 53 75 a8 be 05 a6 2b be 9b ca 8a bd
       -0.28389055 -0.3290201 -0.1676255 -0.06776925
000260 f1 df 2d be 0d 38 4b be 54 1e 83 be ba cd 01 3e
       -0.16979958 -0.198456 -0.25609076 0.12676135
000270 22 37 b3 3e b0 ea ac bb 28 e1 9d 3d ef c6 e6 3c
       0.35003 -0.0052770004 0.07708961 0.02817103
000280 cf 03 b3 3d bc 72 10 be 88 9b 5c bd 67 51 8a bc
       0.08740961 -0.14106268 -0.053859264 -0.016884519
000290 3e 29 cf bd 71 1a 8d bd ba 20 8b 3d 23 7e 8a 3d
       -0.10115288 -0.06889809 0.067933515 0.0676234
0002a0 68 53 7b bd 75 f5 25 bd e7 5a 79 3d 8e 1c bc bc
       -0.06135884 -0.04051729 0.060877707 -0.022962835
0002b0 51 ed 11 bd 8d 3c 42 3d 83 f7 be bd ea de 90 3d
       -0.035626713 0.047421027 -0.09324553 0.070737675
0002c0 af 36 d4 bd 31 4a 9a bd 11 8b f6 3c 99 47 4e 3a
       -0.103619926 -0.07533682 0.030095609 0.0007868945
0002d0 26 44 3b be cb 08 40 be d2 3a 4a 3e 01 00 ca bd
       -0.18287715 -0.18753354 0.19749 -0.09863282
0002e0 a6 49 7e be d5 2e c6 3b 77 30 70 be 21 27 3f be
       -0.24832782 0.0060480633 -0.23455988 -0.1866727
0002f0 47 5d a5 bc fc 1b 43 bd e5 a9 80 bd 38 80 71 3d
       -0.02018608 -0.04763411 -0.06282405 0.05896017
000300 90 df 5d 3d 37 ef 90 bd 95 3e 01 be 87 c0 3b 3d
       0.054168284 -0.070768766 -0.1262153 0.045837905
000310 d7 20 95 bd a0 e3 c6 3d e0 83 2b be e1 f8 af be
       -0.07281654 0.09711385 -0.16749525 -0.34369567
000320 30 81 71 be b6 3a 36 bd da c2 4a bd 61 7e 87 be
       -0.23584437 -0.044489585 -0.04950223 -0.26463607
000330 47 31 58 3e ea 00 61 3e 54 7a 38 3c f1 03 be bc
       0.21112548 0.21973005 0.011259634 -0.023195239
000340 79 d3 bf 3b d6 94 c1 bd 75 57 74 be f9 f0 03 3d
       0.005854067 -0.09452216 -0.23861487 0.03221223
000350 de cb 8c bb 29 f9 c8 3c 7f 72 b1 bd 65 64 7c be
       -0.004296764 0.024532871 -0.086644165 -0.24647672
000360 07 bc 09 3e 86 13 de be b0 5a 80 bc 4b ca 82 3e
       0.13450633 -0.4337427 -0.015668243 0.25544962
000370 2e 3a e8 be 62 a2 70 be 38 9f 8b 3e 22 e0 5f 39
       -0.45356888 -0.23499444 0.27269912 0.00021350433
000380 46 89 7c be b0 a3 e4 3d 8a a0 03 3d af f4 4f be
       -0.2466174 0.111640334 0.032135524 -0.20308183
000390 9d b8 4e bd d6 39 8a 3e 5c d6 f5 bb 21 73 f1 bd
       -0.05046903 0.2699725 -0.0075023603 -0.11789537
0003a0 ad a8 db 3e 7d 88 a9 3d 67 b0 1d 3e 57 68 ca 3d
       0.42902127 0.08277986 0.15399323 0.098831825
0003b0 c3 ab 6c 3d bf 62 8e be 4b ec 29 be eb 7b 5b 3e
       0.057780992 -0.27809712 -0.16594045 0.2143399
0003c0 18 c0 06 3e ef 5d 08 be 60 e0 5f be 3b 80 65 be
       0.13159215 -0.13317083 -0.21862936 -0.22412197
0003d0 9c 5c 4e 3d eb 8f 01 3e 33 39 c0 3d d5 97 9a 3d
       0.050381288 0.12652557 0.0938591 0.07548491
0003e0 6c 3e 2d 3e 83 d5 c0 bc 49 da 84 bd 65 8f 82 be
       0.16918343 -0.02353931 -0.06486947 -0.25500026
0003f0 bc b5 06 bd 13 c6 4a 3d 5e 38 7e bd c5 01 30 bd
       -0.03288816 0.049505305 -0.062065475 -0.042970438

block_2.2.bias f4 [10]
000000 0b a9 78 be 29 60 c3 3e 4d 86 3a bc 6e c0 ad bd
       -0.24283235 0.38159302 -0.011384559 -0.08483969
000010 8e 0f 24 3d fa a4 77 3d 97 cf aa 3e c9 02 9b bd
       0.040053897 0.06046007 0.33361503 -0.075688906
000020 af 30 83 be bb bc f1 bd
       -0.2562308 -0.118035756

classifier.1.weight f4 [10, 490]
000000 3f 7a ac bc 8d b7 09 bd 08 a8 9a 3d a1 4d cc bb
       -0.021054385 -0.033622313 0.07551581 -0.00623484
000010 12 f4 97 3c cb c1 d3 3d 62 ac 02 3e 3a bf cc bd
       0.018548999 0.103396975 0.12761071 -0.09997411
000020 d6 e4 ca 3d a4 b2 85 3d 03 8f a4 3d d5 f6 41 bc
       0.09906928 0.065282136 0.0803509 -0.0118386345
000030 c0 9e 33 3e 4b bc 88 3d 3d f0 ce bd 9f d3 cd bb
       0.17541027 0.06676539 -0.101044156 -0.0062813307
000040 b2 37 e8 bc 28 f6 cb bd f1 87 a7 bc e7 4b 5b bd
       -0.02834687 -0.0995906 -0.020450564 -0.053539183
000050 5b 61 48 3d 9d dd 8d bd 85 5f 23 bd 70 62 32 3d
       0.04892097 -0.06927035 -0.039886016 0.04355091
000060 08 8c d6 bd d8 6c 43 3d b3 d8 2c bd d7 a5 5e bb
       -0.104759276 0.047711223 -0.042198848 -0.003397336
000070 27 4b ce bd be 70 85 3d 1c 59 5a 3d 36 e6 00 be
       -0.10072928 0.065156445 0.053307638 -0.12587819
000080 bb f1 a3 3c 17 b4 83 3d 20 1c 52 bd b4 e6 84 bd
       0.020012727 0.06430834 -0.051296353 -0.06489316
000090 32 b3 0c 3d 8a ce fb bc a9 8f 78 bd 95 91 6d bc
       0.03435058 -0.030738134 -0.06068388 -0.0145000415
0000a0 c2 e1 b5 bc 39 8a 88 bd 5a 0d 9a 3d 4d e6 ab bd
       -0.022202376 -0.06666989 0.07522078 -0.08393536
0000b0 d6 f0 6e bd 54 b5 b3 bc 83 84 9e bd cf ae b6 bc
       -0.058335148 -0.02193705 -0.07740118 -0.022300152
0000c0 67 47 26 3b 2e f1 11 3d 87 ac 96 bd ea 73 6a be
       0.002537215 0.035630397 -0.07357126 -0.2289578
0000d0 ae ae 98 bd 00 91 1d 3e f5 05 df 3d eb 7d 0b 3c
       -0.074551925 0.15387344 0.10889808 0.008513908
0000e0 1f c0 94 3d 53 d9 14 3e 52 18 92 3d c6 26 ac bd
       0.07263207 0.14536028 0.07133545 -0.08405833
0000f0 ea 8a a5 3d be 88 42 3e 5c ae aa bc 4e b6 d9 3d
       0.080831364 0.18997476 -0.020835094 0.10630475
000100 4f 48 57 3d 71 f8 a5 3e 6b 8b f1 bd 6b b1 7c 3e
       0.052559193 0.32416108 -0.1179417 0.24677055
000110 84 df 16 bd 9f f5 ba bb 02 98 5f bc 26 0f bb 3c
       -0.036834255 -0.00570555 -0.013647081 0.022834372
000120 38 bc c1 bc 59 2d 2b be 70 77 aa 3b 1d 5f 62 3d
       -0.02364932 -0.16716518 0.0052022263 0.05526649
000130 14 7f ea bc b6 08 c5 bb c3 6b 8f bd 7f 92 0d bd
       -0.028625049 -0.0060130013 -0.07002976 -0.034563538
000140 8e ad 2b be 89 b3 4c bd 0c ff a3 bd c4 c1 b2 bd
       -0.16765425 -0.049975906 -0.08007631 -0.08728364
000150 01 4e 80 bd de 9e 04 be 8d ee 9c bd e8 57 69 bd
       -0.06264878 -0.12951228 -0.076626875 -0.0569686
000160 cd 7a bb bd 5c 7d bd bd 7b 2b 8d bc 54 ea 82 bd
       -0.09154282 -0.09252426 -0.017232647 -0.06392351
000170 7c 21 14 bd 24 96 e5 3b f1 31 cf 3d dc 46 52 3e
       -0.036164746 0.0070064235 0.101169474 0.20534843
000180 ff 30 03 3d 82 bc f3 3c ba c7 1a bc a6 d8 98 3c
       0.03202915 0.029752973 -0.009447033 0.018657994
000190 68 f7 c5 bd 46 39 05 bd cc bd 54 3d 3b 4d 30 bd
       -0.096663296 -0.032525323 0.051938817 -0.043042403
0001a0 30 8b f1 3d 76 c1 67 3c a9 36 19 bd f9 cc a5 3d
       0.11794126 0.014145246 -0.037405644 0.08095736
0001b0 4c 8a 7d bc 7d dd e2 3c 6e e0 05 3e 76 bd 8e 3e
       -0.015474867 0.027693504 0.13073894 0.27878922
0001c0 be 5d 64 3d 57 15 93 3d bf 2b 21 3e 24 4e b3 bd
       0.055753462 0.071818046 0.15739344 -0.087551385
0001d0 55 8d 6b bd 27 71 cc 3d 8e 72 0a 3d bd f9 bd 3c
       -0.05750783 0.099825196 0.033800654 0.023190374
0001e0 b6 91 d7 3d ea 75 b2 3d b2 84 2c bd c5 14 bb bd
       0.10525839 0.087138966 -0.042118736 -0.09134821
0001f0 15 6e f4 bd 46 b8 94 bd 9d 6c 24 bd 66 48 84 ba
       -0.11935059 -0.0726171 -0.040142644 -0.0010092377
000200 8b 47 ad 3d ec c5 32 bd 6e 4e 1d bc e0 09 11 3e
       0.08460911 -0.043645784 -0.009601219 0.14163923
000210 ca 89 30 be 86 fb 93 bd b1 34 c8 bd b7 67 cc bd
       -0.17240062 -0.07225709 -0.09775675 -0.099807195
000220 6e 64 0b be 2a 23 04 bd 7b bc 03 3e 3d d8 29 be
       -0.1361253 -0.032260098 0.12864868 -0.16586395
000230 47 eb 79 bd 73 1c a7 bd 5c 4b da 3d b8 89 4e bd
       -0.061015394 -0.08159723 0.10658905 -0.050424308
000240 07 32 60 bd b7 eb 39 3e 2e f8 f2 bd 1b 2f 9a 3d
       -0.05473521 0.18156324 -0.11863743 0.07528516
000250 09 28 5e 3e eb 65 e2 bd 8d b6 83 bd 56 da 71 bd
       0.2169496 -0.110545956 -0.06431303 -0.059046112
000260 68 32 0e 3d 01 69 8c 3c 86 cf 05 3e 4a a8 f8 3b
       0.03471604 0.017139914 0.13067445 0.007588421
000270 68 e9 27 3e 5b 4a 83 3d c3 ee 0b 3d 7b 0b 56 bd
       0.16397631 0.064106666 0.034163248 -0.052257042
000280 89 3f d0 bd f8 f3 44 3d 7f 65 54 bd 43 19 20 be
       -0.10168368 0.04808423 -0.051854607 -0.15634637
000290 08 44 0f 3d f1 6c d3 bb 01 63 c6 bd 13 ea 46 be
       0.03497699 -0.006452196 -0.09686852 -0.1942523
0002a0 6f 1e fe 3d c3 12 35 3d 75 dd 4c be 96 78 27 bd
       0.124081485 0.044207346 -0.20006354 -0.040886484
0002b0 8c 9f 7f bb 81 fd 07 be 48 af a4 bd 7e d1 88 3d
       -0.003900501 -0.13280298 -0.08041245 0.066805825
0002c0 fc 9a 67 bb 83 57 15 3b 80 42 c6 bc 11 73 da bb
       -0.003534018 0.0022787757 -0.024201632 -0.006666549
0002d0 e6 b1 f2 3c 14 3b 9a 3d 4a 68 a9 3d 14 41 5f bd
       0.029625844 0.075307995 0.08271845 -0.054505423
0002e0 c5 e1 7c bd 43 19 91 bd 04 e5 8b 3d 9b 23 81 bc
       -0.061738748 -0.070848964 0.06830791 -0.015764048
0002f0 94 e7 14 3d 9a ca a8 bc 05 55 10 3c c4 a7 05 bd
       0.036353663 -0.02060442 0.008809333 -0.032630697
000300 d8 0f b4 3b a6 58 85 3d 33 67 15 3c dc 78 07 3e
       0.005495053 0.06511049 0.009118843 0.13229698
000310 c6 e0 9a 3d 73 9e 3e 3e 43 a7 e9 3b da 43 59 be
       0.075624034 0.18615131 0.007130535 -0.2121729
000320 6f 0d 12 3d d4 bf 7d bd 3c f7 5e bd 87 b5 17 3e
       0.035657343 -0.06195052 -0.054435 0.14815341
000330 4d 86 3d bd 19 90 a5 bd 18 30 6c bd 48 6f 2a bd
       -0.046270657 -0.08084125 -0.057663053 -0.041610032
000340 01 b1 e6 3d 88 a6 a2 bd 89 53 10 3d 30 96 f4 3d
       0.112642296 -0.079419196 0.035235915 0.119427085
000350 92 3c c6 3d 3d 25 99 bd 10 c5 66 bd 73 dd bd 3d
       0.096795216 -0.07477806 -0.056340277 0.09270754
000360 bf e5 8e bd b8 de 5b 3c 00 a2 02 3d ea b3 36 3e
       -0.06977414 0.0134197995 0.031892776 0.1784207
000370 62 61 cd bd 5f 46 52 ba 5b f6 4a 3e f0 90 da bd
       -0.1002834 -0.00080213504 0.1982054 -0.10672176
000380 ee 59 e5 bb 84 81 ae 3c 7e bd 0a 3d 63 2f 6b bd
       -0.006999246 0.021301992 0.03387212 -0.05741824
000390 fe 2c f8 bc 1c 1f a1 3c 58 f1 c6 bd 95 0f 86 bd
       -0.030294891 0.019668154 -0.097140014 -0.06545941
0003a0 f1 e9 4f 3e 6e 1b 04 be af ce 3d be 08 82 d8 bd
       0.20304085 -0.12901089 -0.18535875 -0.105716765
0003b0 f0 d6 3f be f5 c7 c6 3c 89 e5 ae bd 22 2c ca 3d
       -0.18734336 0.024265269 -0.08539874 0.09871699
0003c0 be 00 1d be de ed 91 bc fe 94 dc bc 75 ce 77 be
       -0.15332314 -0.01781362 -0.026926514 -0.24199851
0003d0 1b 52 4a 3d 70 28 93 3d 34 63 1f 3d d6 c9 2e 3e
       0.049394708 0.07185447 0.038912967 0.17069182
0003e0 9e 5e 80 3d 49 42 89 3e 50 12 07 3e 57 27 12 3d
       0.06268047 0.26808384 0.1319058 0.03568205
0003f0 16 b1 8f 3e 52 50 31 3e a9 b4 cd bd b0 94 c6 bd
       0.28064793 0.17315796 -0.10044224 -0.09696329

classifier.1.bias f4 [10]
000000 99 8e 2f 3e 1d 46 35 be c7 c6 58 3e 96 c2 e7 3d
       0.1714424 -0.17702527 0.21169578 0.11316411
000010 f7 dd 86 be 57 e0 25 bd 21 eb 38 3d 2b 31 17 3e
       -0.2634122 -0.04049715 0.04514611 0.1476485
000020 d8 e4 80 bc 35 a4 05 be
       -0.015734121 -0.13050921
